…
ocalhost:8080/"},"id":"k-ZNPUgFmPvv","executionInfo":{"status":"ok","timestamp":1658119261041,"user_tz":-540,"elapsed":416,"user":{"displayName":"김서진(상경대학 응용통계학과)","userId":"15599389639595271672"}},"outputId":"40e7de3a-6c76-414d-f464-544b2a20752f"},"execution_count":null,"outputs":[{"output_type":"stream","name":"stdout","text":["Model: \"sequential_4\"\n","_________________________________________________________________\n"," Layer (type)                Output Shape              Param #   \n","=================================================================\n"," time_distributed_33 (TimeDi  (None, 1, 8, 64)         256       \n"," stributed)                                                      \n","                                                                 \n"," time_distributed_34 (TimeDi  (None, 1, 6, 128)        24704     \n"," stributed)                                                      \n","                                                                 \n"," time_distributed_35 (TimeDi  (None, 1, 4, 64)         24640     \n"," stributed)                                                      \n","                                                                 \n"," time_distributed_36 (TimeDi  (None, 1, 2, 64)         0         \n"," stributed)                                                      \n","                                                                 \n"," time_distributed_37 (TimeDi  (None, 1, 128)           0         \n"," stributed)                                                      \n","                                                                 \n"," bidirectional_10 (Bidirecti  (None, 1, 20)            11120     \n"," onal)                                                           \n","                                                                 \n"," dropout_10 (Dropout)        (None, 1, 20)             0         \n","                                                                 \n"," bidirectional_11 (Bidirecti  (None, 20)               2480      \n"," onal)                                                           \n","                                                                 \n"," dropout_11 (Dropout)        (None, 20)                0         \n","                                                                 \n"," dense_5 (Dense)             (None, 1)                 21        \n","                                                                 \n","=================================================================\n","Total params: 63,221\n","Trainable params: 63,221\n","Non-trainable params: 0\n","_________________________________________________________________\n"]}]},{"cell_type":"code","source":["plt.plot(history.history['loss'], label='train loss')\n","plt
…
