…
displayName":"이준서(상경대학 응용통계학과)","userId":"02691512910832929778"}},"outputId":"a75a7b38-723e-4ea7-b0b1-18caa4728a68"},"execution_count":35,"outputs":[{"output_type":"stream","name":"stdout","text":["Model: \"model_4\"\n","_________________________________________________________________\n"," Layer (type)                Output Shape              Param #   \n","=================================================================\n"," input_6 (InputLayer)        [(None, 96, 96, 3)]       0         \n","                                                                 \n"," block1_conv1 (Conv2D)       (None, 96, 96, 64)        1792      \n","                                                                 \n"," block1_conv2 (Conv2D)       (None, 96, 96, 64)        36928     \n","                                                                 \n"," block1_pool (MaxPooling2D)  (None, 48, 48, 64)        0         \n","                                                                 \n"," block2_conv1 (Conv2D)       (None, 48, 48, 128)       73856     \n","                                                                 \n"," block2_conv2 (Conv2D)       (None, 48, 48, 128)       147584    \n","                                                                 \n"," block2_pool (MaxPooling2D)  (None, 24, 24, 128)       0         \n","                                                                 \n"," block3_conv1 (Conv2D)       (None, 24, 24, 256)       295168    \n","                                                                 \n"," block3_conv2 (Conv2D)       (None, 24, 24, 256)       590080    \n","                                                                 \n"," block3_conv3 (Conv2D)       (None, 24, 24, 256)       590080    \n","                                                                 \n"," block3_pool (MaxPooling2D)  (None, 12, 12, 256)       0         \n","                                                                 \n"," block4_conv1 (Conv2D)       (None, 12, 12, 512)       1180160   \n","                                                                 \n"," block4_conv2 (Conv2D)       (None, 12, 12, 512)       2359808   \n","                                                                 \n"," block4_conv3 (Conv2D)       (None, 12, 12, 512)       2359808   \n","                                                                 \n"," block4_pool (MaxPooling2D)  (None, 6, 6, 512)         0         \n","                                                                 \n"," block5_conv1 (Conv2D)       (None, 6, 6, 512)         2359808   \n","                                                                 \n"," block5_conv2 (Conv2D)       (None, 6, 6, 512)         2359808   \n","                                                                 \n"," block5_conv3 (Conv2D)       (None, 6, 6, 512)         2359808   \n","                                                                 \n"," block5_pool (MaxPooling2D)  (None, 3, 3, 512)         0         \n","                                                                 \n"," flatten_2 (Flatten)         (None, 4608)              0         \n","                                                                 \n"," dense_14 (Dense)            (None, 3)                 13827     \n","                                                                 \n","=================================================================\n","Total params: 14,728,515\n","Trainable params: 13,827\n","Non-trainable params: 14,714,688\n","_________________________________________________________________\n"]}]},{"cell_type":"code","source":["model_3.compile(loss='categorical_crossentropy', \n
…
